functions/ml/models/aqi_lstm_model.pth (torch, 206133 bytes, 9 tensors)

lstm.weight_ih_l0 f4 [256, 1]
0	0x3dcc1b14	0.09966102
1	0x3e18fb5d	0.14939637
2	0x3e02d7c0	0.12777615
3	0x3dce74ca	0.100808695
4	0xbde28199	-0.11059875
5	0xbd69f792	-0.057120867
6	0x3e0d3dad	0.13793059
7	0xbdf526b9	-0.119702764
8	0xb9663b2e	-0.00021956555
9	0x3de1d12b	0.11026224
10	0xbdfd6f8b	-0.12374791
11	0x3ddb8a6d	0.10719762
12	0x3e0ad816	0.13558993
13	0xbddbaf42	-0.10726787
14	0x3def2747	0.116774134
15	0xbd8af89f	-0.06785702
16	0x3cd75640	0.026286244
17	0x3db4e775	0.088332094
18	0x3e1c26ce	0.15249178
19	0xbddf1627	-0.10892897
20	0xbd609270	-0.054827154
21	0x3e03e03e	0.1287851
22	0x3d2f5b69	0.042811785
23	0xbe0b92ec	-0.13630265
24	0xbcda0ebc	-0.026618354
25	0xbd8ad211	-0.06778348
26	0x3d91eba3	0.07125022
27	0xbd8080bd	-0.06274555
28	0x3e13f8ae	0.14450333
29	0x3decc26a	0.11560519
30	0x3d31c024	0.04339613
31	0x3dba8255	0.0910689
32	0x3cf27eb8	0.02960144
33	0x3df81150	0.12112677
34	0x3dc01663	0.0937927
35	0xbda5b3f8	-0.08090967
36	0xbcddea7a	-0.027089346
37	0x3de62fe5	0.11239604
38	0xbca903ee	-0.020631757
39	0x3da4e9ad	0.080523826
40	0xbcf86f6f	-0.030326573
41	0x3e005a7c	0.12534517
42	0x3d974521	0.07386232
43	0xbd5f2e91	-0.05448777
44	0x3df7cef3	0.12100019
45	0x3ced568f	0.028971938
46	0x3d06dc89	0.032925162
47	0x3c451ef6	0.012031307
48	0xbcdcd777	-0.02695821
49	0xbd70a92c	-0.058755085
50	0x3ce7bc4b	0.028288027
51	0x3d8df5f2	0.06931676
52	0xbdfc7635	-0.12327234
53	0x3db7c001	0.08972169
54	0xbd85a668	-0.0652588
55	0x3cc54d7d	0.0240848
56	0xbd90a0a2	-0.07061888
57	0x3c9c1d55	0.019056955
58	0x3ce1f690	0.02758339
59	0x3d82f840	0.06395006
60	0xbd84c8b6	-0.06483595
61	0xbd9b53f3	-0.075843714
62	0x3ddb3882	0.107041374
63	0x3c14736b	0.009060721
64	0xbde32c68	-0.11092454
65	0x3dd80185	0.10547165
66	0x3da52d3a	0.08065267
67	0x3dfd4729	0.12367088
68	0x3de1e0a4	0.11029175
69	0xbcfa870f	-0.03058198
70	0x3dec58d6	0.115403816
71	0x3d92d4fe	0.07169531
72	0x3ca34984	0.019932516
73	0x3e0249fd	0.12723537
74	0x3d860a7a	0.06544967
75	0x3d6b490b	0.057442706
76	0x3dce6e7a	0.100796655
77	0xbc413319	-0.011791968
78	0xbdc182a5	-0.094487466
79	0x3e1708a2	0.14749387
80	0x3db0067f	0.08594989
81	0xbdb52cf3	-0.08846464
82	0x3dbe17a3	0.09281852
83	0xbd927625	-0.071514405
84	0xbda2a306	-0.079412505
85	0xbd8edfda	-0.0697629
86	0xbcb6a0e0	-0.022293508
87	0xbe05a465	-0.13050993
88	0x3e03ced0	0.12871861
89	0x3e003826	0.12521419
90	0xbd8ac797	-0.0677635
91	0xbd0e5400	-0.034748077
92	0xbd426e94	-0.047468737
93	0x3d240995	0.0400482
94	0x3dfe46d5	0.12415854
95	0x3d6ca025	0.057769913
96	0xbc9db955	-0.019253412
97	0x3d275379	0.04085109
98	0xbb91ed39	-0.004453328
99	0xbd9cf134	-0.07663193
100	0xbd30d404	-0.043170944
101	0x3d1490ff	0.03627109
102	0x3d63d44e	0.05562239
103	0xbcb9774f	-0.022639899
104	0x3df936f6	0.12168686
105	0x3df4d84a	0.11955316
106	0xbd520158	-0.051270813
107	0xbd8b2586	-0.067942664
108	0xbdb06a45	-0.08614019
109	0x3e0509dd	0.12992044
110	0x3da197bf	0.078902714
111	0x3d633c35	0.05547734
112	0xbd836eff	-0.06417655
113	0xbd85d011	-0.06533826
114	0x3e122b22	0.14274266
115	0xbb42815c	-0.0029679155
116	0xbdbaadb0	-0.091151595
117	0x3dea790d	0.1144887
118	0x3d9febce	0.07808648
119	0x3da1578e	0.07878028
120	0xbd7ab5b6	-0.06120845
121	0x3dfea504	0.12433818
122	0xbd93736e	-0.07199751
123	0x3caf9ffc	0.021438591
124	0x3d71affa	0.059005715
125	0x3d927194	0.071505696
126	0x3db633cc	0.08896598
127	0x3cd06c2a	0.025442202
128	0x3c48124d	0.0122113945
129	0x3c0a261a	0.008431936
130	0x3dd167b4	0.10224858
131	0x3d8ab545	0.06772856
132	0xbc41488c	-0.011797082
133	0xbdf9155d	-0.12162278
134	0xbe1198fc	-0.14218515
135	0xbc1ff58c	-0.009763133
136	0x3c9b4117	0.018951936
137	0xbe02de36	-0.12780079
138	0x3dd1af93	0.10238566
139	0x3c075f65	0.00826249
140	0xbd5f96db	-0.054587226
141	0xbdc76862	-0.09736706
142	0xbdccdbdc	-0.10002872
143	0xbe187fe1	-0.14892532
144	0x3dad4b53	0.084616326
145	0xbe0600b7	-0.1308621
146	0xbd9d9dfe	-0.0769615
147	0xbdb69d8a	-0.08916767
148	0xbdc46f14	-0.09591499
149	0x3ca3869d	0.01996165
150	0xbdaab2c0	-0.08334875
151	0x3d7ad9cc	0.061242864
152	0x3db97f50	0.09057486
153	0x3d17222b	0.03689782
154	0x3de320aa	0.110902146
155	0x3cd71e36	0.026259523
156	0xbd4df4f4	-0.050282434
157	0xbb9c0346	-0.0047611324
158	0x3d799ebc	0.060942397
159	0xbd184389	-0.03717378
160	0x3dc9d2b4	0.098546416
161	0x3bfe936b	0.0077690384
162	0x3d60be48	0.054868966
163	0x3e02bdf8	0.1276778
164	0xba9a6db4	-0.0011781962
165	0x3da5aa21	0.0808909
166	0xba175c26	-0.0005773924
167	0x3e05012c	0.12988728
168	0xbde7e7bc	-0.11323497
169	0xbd65f40d	-0.056140948
170	0xbde6aa82	-0.112629905
171	0x3d4c65f2	0.04990191
172	0xbdc911f3	-0.09817877
173	0x3de835ca	0.113383844
174	0xbcbaedb0	-0.022818416
175	0x3d0973af	0.03355759
176	0xbc13a212	-0.009010809
177	0xbda5eec3	-0.08102181
178	0xbdde1d4d	-0.108454324
179	0x3d93eca5	0.07222871
180	0xbd9c5f90	-0.076354146
181	0xbd151463	-0.036396395
182	0xbdb35940	-0.087572575
183	0x3da63ecd	0.08117447
184	0xbdeae90a	-0.1147023
185	0x3dfd40cc	0.12365875
186	0xbd87dfb3	-0.06634464
187	0x3c72bb83	0.014815214
188	0xbd515d9a	-0.051114656
189	0xbd591966	-0.053002737
190	0xbdb14a1e	-0.08656715
191	0xbcc3317f	-0.023827313
192	0x3dabb30d	0.083837606
193	0x3dc131d8	0.09433335
194	0xbc066496	-0.0082026925
195	0x3db19b09	0.08672149
196	0xbd5b5f6e	-0.053557806
197	0x3e094ebb	0.1340894
198	0x3e201d7b	0.15636246
199	0xbcbaabf7	-0.022787077
200	0xbcb4b1f6	-0.022057515
201	0x3d273ede	0.04083144
202	0xbc2d0cbe	-0.01056212
203	0xbe00a8c2	-0.12564376
204	0x3d358f46	0.04432609
205	0x3d6874c2	0.056751974
206	0x3dea769a	0.11448403
207	0x3e14d5e0	0.14534712
208	0xbdc5bdae	-0.09655319
209	0x3da98fca	0.08279379
210	0x3c44883b	0.0119953705
211	0xbdd825ba	-0.10554071
212	0x3d530dfb	0.051527005
213	0xbdc99023	-0.09841945
214	0x3d3ae174	0.045625165
215	0xbda45036	-0.080231115
216	0x3dc170e0	0.09445357
217	0xbd8c0053	-0.06835999
218	0x3e080fde	0.13287303
219	0x3dcded18	0.10054988
220	0x3db115e9	0.08646757
221	0x3db96b16	0.09053628
222	0xbd7e89e6	-0.06214323
223	0xbcac4e8f	-0.021033553
224	0xbda0336f	-0.0782231
225	0xbd819e7f	-0.06329059
226	0xbd32413c	-0.043519244
227	0xbb953e10	-0.0045545176
228	0xbbdb3af0	-0.0066903755
229	0x3d8ab22c	0.06772265
230	0x3dbd2bbe	0.09236859
231	0x3c1e9eb2	0.009681391
232	0xbcbf84b8	-0.023378715
233	0xbd895f6b	-0.06707653
234	0x3dc649b5	0.09682027
235	0xbd9791b4	-0.074008375
236	0xbca37422	-0.019952837
237	0xbc9742a8	-0.018464401
238	0x3dbef66a	0.093243435
239	0x3d46f884	0.048576847
240	0x3d8ba0fe	0.06817816
241	0x39ef6a84	0.00045664993
242	0x3e0f4b83	0.13993649
243	0x3e041d95	0.1290191
244	0xbd2be4bd	-0.04196619
245	0x3d51849b	0.051151853
246	0xbd4c68dc	-0.04990469
247	0x3dd2ad9a	0.10287018
248	0x3e08abc0	0.13346767
249	0x3deafeed	0.114744045
250	0x3d7bcbcf	0.061473664
251	0x3c92d0e6	0.017921876
252	0x3d96aa81	0.0735674
253	0x3e07d0a9	0.13263191
254	0xbd96c88e	-0.073624715
255	0x385b84f8	5.2337506e-05

lstm.weight_hh_l0 f4 [256, 64]
0	0xbdab331a	-0.08359356
1	0x3df0729c	0.1174061
2	0xbdd91338	-0.10599369
3	0xbd7ab073	-0.06120343
4	0x3ddda107	0.10821729
5	0x3dbdc90c	0.09266862
6	0x3d89c8f2	0.067277804
7	0xbe06eabd	-0.13175483
8	0xbdb5fed7	-0.088864975
9	0xbd944fe2	-0.07241799
10	0xbdaa88f0	-0.083269
11	0xbe03f763	-0.1288734
12	0x3dcde633	0.10053673
13	0xbdae9bd1	-0.08525813
14	0xbd85d48f	-0.06534683
15	0x3c755ed9	0.014976227
16	0xbd2154dd	-0.039387573
17	0x3df55f04	0.119810134
18	0x3d507e98	0.05090198
19	0x3db508f9	0.08839602
20	0x3dd4baa5	0.10387162
21	0xbdf4769c	-0.119366854
22	0x3da12d7b	0.07870003
23	0xbc9489f7	-0.018132193
24	0x3d8fd7b6	0.070235655
25	0x3da428b2	0.080155745
26	0x3df0a3a2	0.117499605
27	0xbd504ded	-0.050855566
28	0xbdc187eb	-0.094497524
29	0x3c99991e	0.01874977
30	0x3ba4ff74	0.005035335
31	0x3ca8446a	0.020540435
32	0xbd98a466	-0.074532315
33	0x3d3a6f78	0.04551646
34	0x3d0f529c	0.03499089
35	0xbcf18236	-0.029481035
36	0x3c3e86f8	0.011628859
37	0xbd27cd8e	-0.040967517
38	0xbce1c287	-0.027558578
39	0x3d4b4fed	0.04963677
40	0x3dca043d	0.0986409
41	0x3e07f2ac	0.13276166
42	0xbdebd2dc	-0.115148276
43	0xbda379c5	-0.0798221
44	0x3dc26e70	0.094937205
45	0xbd8d0e01	-0.06887437
46	0x3d0e33d3	0.034717392
47	0x3d9f8e77	0.07790845
48	0xbd117642	-0.03551317
49	0xbd8759ae	-0.06608902
50	0x3d859363	0.065222524
51	0xbd37fd0c	-0.04491906
52	0x3dc95406	0.09830479
53	0xbdbb01a7	-0.091311745
54	0xbd98f2d6	-0.07468192
55	0x3c8ddf0b	0.01731827
56	0xbdc99438	-0.098427236
57	0x3d8a0064	0.06738356
58	0x3d8e32fc	0.06943318
59	0xbd664ed3	-0.056227516
60	0xbdb381c1	-0.08764983
61	0xbdddbd92	-0.10827173
62	0x3dfb8915	0.12282006
63	0x3dcbbc26	0.09947996
64	0x3da6d71b	0.08146497
65	0x3c57b86e	0.01316653
66	0x3dbf6639	0.09345669
67	0xbad10aff	-0.0015948712
68	0x3d74d73c	0.059775576
69	0xbcc0a7db	-0.02351754
70	0x3d2c89db	0.042123657
71	0x3d1355bd	0.03597044
72	0x3d244999	0.04010925
73	0xbdf56784	-0.11982635
74	0xbd239388	-0.03993562
75	0x3dc2a971	0.09504975
76	0x3d2972d4	0.041369274
77	0x3d353506	0.04424002
78	0xbbb16004	-0.0054130573
79	0x3dbc6130	0.091982245
80	0xbd6867a6	-0.05673947
81	0xbddcc374	-0.10779467
82	0xbd9c25fa	-0.07624431
83	0xbd898957	-0.067156486
84	0x3b708065	0.0036697623
85	0xbd2f1945	-0.04274871
86	0xbd3cf9a6	-0.04613652
87	0xbbc2484b	-0.005929028
88	0x3df3b7cf	0.11900293
89	0xb88eb778	-6.8052614e-05
90	0xbda2c88a	-0.07948406
91	0xbc19bf44	-0.00938398
92	0xbc59fb9d	-0.013304618
93	0xbdadca39	-0.084858365
94	0x3cf3f49d	0.029779727
95	0x3db02df3	0.08602514
96	0x3d25aa2f	0.040445503
97	0xbd67c43b	-0.056583624
98	0xbcd04ad6	-0.02542631
99	0xbdc86c3e	-0.097862706
100	0xbdca5d68	-0.09881097
101	0xbddfdd06	-0.10930829
102	0x3caf74cb	0.021417996
103	0x3d35a305	0.04434492
104	0xbde2de3f	-0.11077546
105	0x3d2629fc	0.040567383
106	0xbdd71f9c	-0.10504076
107	0xbd7649b2	-0.060128875
108	0xbe0931ca	-0.133979
109	0x3d3ac84e	0.04560118
110	0xbd9125ab	-0.07087263
111	0x3cd01b47	0.025403632
112	0x3dcc7314	0.09982887
113	0x3db1a90d	0.08674822
114	0xbd90da12	-0.070728436
115	0x3dbbfa77	0.09178632
116	0xbd55d564	-0.05220546
117	0xbd073848	-0.03301266
118	0xbcc94d9b	-0.024573138
119	0xbd0b3363	-0.033984553
120	0x3b4fb799	0.0031695126
121	0xbdd76925	-0.105181016
122	0xbddc35bc	-0.107524365
123	0xbdb8622d	-0.090031005
124	0xbdd59802	-0.10429384
125	0xbd09860f	-0.033575114
126	0xbdb91b84	-0.09038451
127	0xbb9f08b0	-0.0048533306
128	0x3daa3468	0.08310777
129	0xbdcd9f40	-0.1004014
130	0x3e04af12	0.12957409
131	0x3ddaf71a	0.10691662
132	0x3daec124	0.085329324
133	0x3dca34f6	0.09873383
134	0xbc4a7e48	-0.012359209
135	0xbce26535	-0.02763615
136	0xbd82c166	-0.06384544
137	0x3d9e3091	0.07724107
138	0xbda211a6	-0.079135224
139	0x3c23259f	0.0099577
140	0xbdb18002	-0.08666994
141	0x3dd5de2c	0.104427665
142	0x3d073621	0.033010606
143	0x3b7519c6	0.0037399395
144	0x3dddd252	0.10831131
145	0xbdf22000	-0.1182251
146	0xbdab784c	-0.08372554
147	0xbd8e5f68	-0.06951791
148	0x3d8ab5c2	0.06772949
149	0x3d40f2db	0.047106605
150	0x3bb12c94	0.0054069255
151	0x3de179fa	0.11009593
152	0x3d6bccd2	0.05756838
153	0x3dcfa409	0.10138709
154	0x3d8411dd	0.0644872
155	0xbd13be8b	-0.036070388
156	0xbdff123d	-0.124546506
157	0xbc45a760	-0.012063831
158	0x3dd46f1a	0.103727534
159	0x3c385c62	0.0112524945
160	0x3d0776cd	0.03307228
161	0x3c07e92f	0.008295341
162	0xbdb55784	-0.08854583
163	0x3d89f6e4	0.06736544
164	0x3dd22c8c	0.10262403
165	0xbd65bf1d	-0.056090463
166	0xbdde67b0	-0.108596206
167	0x3e1ccaa4	0.15311676
168	0xbdeb6e18	-0.11495608
169	0xbdbe1cd6	-0.09282844
170	0xbdfbd23a	-0.12295957
171	0xbcdc32a1	-0.02687961
172	0xbd5001c4	-0.050782934
173	0x3d99a5f0	0.07502353
174	0xbd0d83e4	-0.03454961
175	0x3dee55cd	0.11637459
176	0x3ccaa794	0.02473811
177	0xbd918f06	-0.07107358
178	0x3d7c67cd	0.06162243
179	0xbd417d91	-0.04723889
180	0xbd85fde1	-0.06542564
181	0x3d034bf4	0.032054856
182	0x3de1047c	0.109871835
183	0x3dd07227	0.10178023
184	0x3d48d14e	0.049027734
185	0x3dd32991	0.103106625
186	0xbd6a2925	-0.057168145
187	0x3d4e5a62	0.050379165
188	0x3dc16d4c	0.09444675
189	0xbd9cf896	-0.076646015
190	0xbd81a16d	-0.06329618
191	0x3da2c1eb	0.07947143
192	0xbd1bdc4a	-0.03805188
193	0xbd2fb962	-0.042901404
194	0x3ceb8912	0.028751884
195	0x3d35515c	0.044267043
196	0x3dd6ca00	0.10487747
197	0xbdf87227	-0.12131148
198	0xbdbd5a59	-0.09245748
199	0xbd50f1f7	-0.051012006
200	0xbdb0ced9	-0.08633203
201	0xbe0d4849	-0.13797106
202	0xbd1f20c3	-0.038849603
203	0xbdd5f588	-0.10447222
204	0x3ce37fb6	0.027770858
205	0xbd545a8b	-0.05184416
206	0x3d442fcb	0.04789714
207	0x3dd5ab84	0.10433105
208	0xbd3eb49e	-0.04655897
209	0x3d31fe55	0.04345544
210	0xbdc44da6	-0.09585123
211	0xbdddd1ef	-0.10831057
212	0xbd84c9bb	-0.064837895
213	0x3d581e62	0.05276335
214	0x3d61f4f7	0.055165257
215	0x3d56c8c2	0.05243755
216	0x3ddd64f1	0.10810269
217	0x3ccf7cd2	0.025328074
218	0xbd640acf	-0.05567437
219	0xbd9570f3	-0.07296934
220	0xbdbfb820	-0.09361291
221	0xbdd4f175	-0.10397617
222	0x3ca99eb6	0.020705562
223	0x3d0ddfac	0.03463714
224	0x3e251046	0.16119489
225	0xbd7b83f6	-0.061405145
226	0x3d1c5c8f	0.03817421
227	0x3db9ce4c	0.09072551
228	0xbda08145	-0.07837156
229	0x3da6bebf	0.08141851
230	0xbdcc4724	-0.099745065
231	0x3d58b0c4	0.05290295
232	0xbd1e4993	-0.038644385
233	0x3c060b22	0.008181365
234	0x3da950a6	0.082673356
235	0xbda200c5	-0.07910303
236	0xbdce6627	-0.10078078
237	0xbc3a411c	-0.011368062
238	0x3dead504	0.11466411
239	0x3d16350e	0.03667169
240	0xbe09324b	-0.13398091
241	0x3d95883f	0.073013775
242	0xbde71ce1	-0.11284805
243	0xbb934d11	-0.004495271
244	0xbddd1e86	-0.107968375
245	0xbdac74fb	-0.0842075
246	0xbc97b5de	-0.018519338
247	0x3cc68162	0.024231616
248	0x3d48aa14	0.048990324
249	0xbd775969	-0.060388003
250	0x3ceb9744	0.028758653
251	0x3d5d33c7	0.054004457
252	0xbde2929e	-0.11063121
253	0x3c41e318	0.0118339285
254	0xbddd0702	-0.10792352
255	0xbd8f1db0	-0.06988084

lstm.bias_ih_l0 f4 [256]
0	0xbddcac22	-0.10775019
1	0x3c14568e	0.009053839
2	0x3d78c31e	0.060732953
3	0x3be0fc03	0.0068659796
4	0xbdfd630e	-0.12372409
5	0x3d15c1be	0.03656172
6	0xbc7ffaa3	-0.015623721
7	0x3d54db6f	0.05196708
8	0xbde19427	-0.11014586
9	0x3d8f1ba7	0.06987696
10	0x3dc28cec	0.09499535
11	0x3dbd40ba	0.09240861
12	0x3df3e6ca	0.11909254
13	0x3dafc64d	0.08582745
14	0x3dde9698	0.10868567
15	0xbdd7eea0	-0.10543561
16	0xbc2337e2	-0.009962054
17	0x3d19de48	0.0375655
18	0xbd62e504	-0.055394188
19	0x3c852a17	0.016255422
20	0x3d6fd409	0.05855182
21	0x3c067777	0.008207194
22	0x3da00642	0.078136936
23	0x3d9b1b30	0.07573545
24	0xbc372c20	-0.011179954
25	0x3d93d742	0.072187915
26	0xbcad99c8	-0.021191493
27	0xbca72a8f	-0.020406036
28	0xbd7021a3	-0.05862583
29	0xbdc6a4e6	-0.09699421
30	0xbd3443af	-0.04400986
31	0xbdb4e819	-0.088333316
32	0x3d967f6b	0.07348522
33	0xbc0d2de0	-0.0086168945
34	0xbd7b0596	-0.061284624
35	0x3d345226	0.044023655
36	0xbd3102d7	-0.0432156
37	0xbbc9ad9f	-0.0061547305
38	0x3d61bdd7	0.055112686
39	0xbb042d16	-0.0020168475
40	0x3c9f304e	0.019432213
41	0xbd27b5c5	-0.040944833
42	0xbb0fd15d	-0.0021944859
43	0xbe08e72b	-0.13369434
44	0x3e0865db	0.13320105
45	0xbb5d9b3e	-0.0033814455
46	0xbe021739	-0.12704171
47	0x3dd635f5	0.1045951
48	0xbd94b602	-0.07261278
49	0xbc60e1c9	-0.013725706
50	0xbd5535ee	-0.052053384
51	0xbd433216	-0.047655188
52	0xbcbd2713	-0.023089921
53	0xbd2c589d	-0.042076696
54	0x3cb342f9	0.021882521
55	0xbde016a6	-0.1094182
56	0x3e045d27	0.1292616
57	0xbd64efc7	-0.055892732
58	0x3d9bf48c	0.07615003
59	0xba7790ca	-0.00094438775
60	0x3d56b888	0.052422076
61	0xbd936f43	-0.07198956
62	0x3da697ca	0.0813442
63	0xbdf651ee	-0.120273456
64	0xbb48d412	-0.0030643982
65	0x3dd40fd4	0.103545815
66	0x3d8177bd	0.063216664
67	0x3d033642	0.032034166
68	0x3d62a49a	0.055332758
69	0x3d5a8708	0.053351432
70	0x3e132eee	0.14373371
71	0xbdb3be07	-0.08776479
72	0xbd11838f	-0.035525855
73	0xbdb75573	-0.08951845
74	0x3cfcda70	0.030865878
75	0x3d322fba	0.043502547
76	0xbded9def	-0.11602389
77	0xbd7a3431	-0.06108493
78	0xbc1c4d93	-0.0095399795
79	0x3e0b5455	0.13606389
80	0x3dcc5769	0.0997761
81	0xbd487235	-0.04893704
82	0x3cb6fe05	0.022337923
83	0xbde2df36	-0.1107773
84	0x3deabfee	0.11462389
85	0xbda9b767	-0.08286934
86	0xbdd6d4bf	-0.10489797
87	0xbd9e9541	-0.07743312
88	0xbdc95f9a	-0.09832688
89	0x3d27507b	0.040848237
90	0x3db2b395	0.08725659
91	0x3dd1c6c4	0.1024299
92	0xbd9a7614	-0.07542053
93	0x3d614d6d	0.05500548
94	0xbdf1763b	-0.11790129
95	0xbc87c76e	-0.016574588
96	0x3e050920	0.12991762
97	0xbd870654	-0.06593004
98	0x3d2dfba2	0.042476304
99	0x3daa1ccb	0.08306273
100	0x3dab665c	0.08369133
101	0xbc7a30c9	-0.01527042
102	0x3d18a602	0.037267692
103	0x3e15f149	0.14642824
104	0xbdc38658	-0.095471084
105	0xbdf2a527	-0.118479066
106	0x3cd4d8f7	0.025982363
107	0x3db79223	0.0896342
108	0xbda7f1a0	-0.08200383
109	0x3b74b01a	0.003733641
110	0x3d8a2f06	0.0674725
111	0x3e0baaa2	0.1363931
112	0xbdef6f0c	-0.116911024
113	0x3e032645	0.12807567
114	0x3dc07e79	0.09399123
115	0x3db91ad9	0.09038324
116	0xbd7f9c0f	-0.06240469
117	0x3da1a19e	0.07892154
118	0x3d4bd73f	0.04976582
119	0x3dc697aa	0.096968964
120	0xbdde90b7	-0.10867446
121	0xbdab006d	-0.083496906
122	0xbdc4ca19	-0.096088596
123	0x3c1808f8	0.009279482
124	0xbdd12c91	-0.102135785
125	0x3dd7b0d9	0.10531778
126	0x3d1758dd	0.03694998
127	0x3d8603da	0.065437034
128	0x3daaad1d	0.083338
129	0xbdb26e12	-0.087124005
130	0xbd92e5cb	-0.07172736
131	0x3ddb0ec2	0.10696174
132	0xbd61b46e	-0.05510371
133	0xbc81cff1	-0.015846225
134	0x3de048f6	0.10951416
135	0x3d4c748b	0.04991583
136	0x3db884dc	0.09009716
137	0xbd16a7ee	-0.036781244
138	0xbcd98494	-0.026552476
139	0x3de5626c	0.11200413
140	0x3cdb4420	0.026765883
141	0xbc41b05b	-0.011821832
142	0x3aa2d473	0.0012422934
143	0xbca8c267	-0.02060051
144	0xbd83d2cd	-0.064366914
145	0xbd859cb3	-0.06524029
146	0xbe067c6c	-0.131334
147	0x3e08de9b	0.13366167
148	0xbe04d6aa	-0.12972513
149	0x3e0676c4	0.13131243
150	0x3caf235e	0.02137917
151	0xbc33d4f0	-0.010976061
152	0x3db3e0c0	0.08783102
153	0x3e03b3b5	0.12861522
154	0x3df94f0b	0.121732794
155	0x3cb7f3e8	0.02245517
156	0xbca9c283	-0.020722633
157	0xbd87db61	-0.0663364
158	0xbdfc28f6	-0.123125
159	0x3da93b7e	0.082633
160	0xbca7b735	-0.020473102
161	0xbe08e6fa	-0.1336936
162	0xbd80e6d1	-0.06294025
163	0xbd1a16fa	-0.03761957
164	0xbd8c2ae5	-0.06844119
165	0xbdd46edc	-0.10372707
166	0x3d59777a	0.053092457
167	0xbd990925	-0.07472447
168	0x3c388c6e	0.01126395
169	0xbda773f4	-0.08176413
170	0xbdf0207b	-0.11724945
171	0x3badf58b	0.005308812
172	0xbe02cb45	-0.12772854
173	0x3cb94152	0.022614155
174	0xbcfa79c3	-0.030575639
175	0x3d943067	0.072357945
176	0xbce219e3	-0.027600234
177	0x3dcc3610	0.09971249
178	0x3cc0cd15	0.02353529
179	0xbde97f12	-0.1140119
180	0xbdbad3e0	-0.09122443
181	0x3dd76616	0.10517518
182	0xbd2e709e	-0.04258787
183	0xbd3b9fbc	-0.04580663
184	0x3cdd425a	0.027009178
185	0xbdc97351	-0.09836448
186	0xbd6e2028	-0.058136135
187	0x3e012457	0.12611519
188	0xbdf99aaf	-0.12187707
189	0x3da308d2	0.07960667
190	0xbc86bde9	-0.016447978
191	0x3cecfbff	0.028928755
192	0xbd2bf44a	-0.04198102
193	0xbd2462ea	-0.040133394
194	0x3daf9ac7	0.08574443
195	0x3db6cb3d	0.089254834
196	0xbcf10dca	-0.02942552
197	0xbd3b5c5c	-0.045742378
198	0x3def499f	0.11683964
199	0xbdf4d748	-0.11955124
200	0xbe08d24c	-0.13361472
201	0xbdc0eb84	-0.09419921
202	0xbd8afc48	-0.067864
203	0x3ce32d55	0.027731577
204	0x3d8bf91d	0.06834624
205	0xbdf457d5	-0.11930815
206	0xbd1ce7c5	-0.03830697
207	0x3df8d16d	0.1214932
208	0xbddbf7bf	-0.10740613
209	0x3d539d74	0.05166383
210	0x3ded450a	0.11585434
211	0x3b97b9c2	0.0046302984
212	0xbc9b87ba	-0.018985618
213	0xbde004b8	-0.109384
214	0xbddfc009	-0.109253
215	0x3d2d9e73	0.042387437
216	0xbbf0c21b	-0.007347358
217	0x3dc1d8af	0.09465157
218	0x3e0bdccd	0.13658448
219	0xbd901505	-0.07035259
220	0x3cc8c74c	0.024509095
221	0xbd94e43d	-0.072700955
222	0x3dc5bd77	0.09655278
223	0xbdb51d0d	-0.088434316
224	0x3dd1270c	0.10212526
225	0x3dafef9b	0.08590623
226	0xbd9e82a1	-0.07739759
227	0x3db6f8f4	0.08934203
228	0xbcb3763e	-0.021906968
229	0xbdbd0eca	-0.092313364
230	0xbd8bf94b	-0.06834658
231	0x3df55513	0.11979117
232	0xbd2dacb7	-0.04240104
233	0xbd2bb024	-0.041916028
234	0x3e0417c8	0.12899697
235	0xbe02b82d	-0.1276557
236	0xbd07431e	-0.033022992
237	0xbdb3df27	-0.08782797
238	0x3c9f163c	0.019419782
239	0x3d3e5a93	0.046473097
240	0xbc719029	-0.014743843
241	0x3c1cb0d6	0.009563645
242	0x3e0d2fe4	0.137878
243	0xbde9b887	-0.11412149
244	0xbb9b5948	-0.0047408678
245	0xbdc7d2c2	-0.09756996
246	0x3df5709a	0.11984368
247	0x3d854300	0.0650692
248	0xbcbdaac4	-0.023152716
249	0x3d8c234a	0.06842668
250	0x3d6f6d12	0.058453627
251	0xbb7ce4f2	-0.003858861
252	0xbcd5adfb	-0.026083937
253	0xbde2bfeb	-0.11071762
254	0x3d97ec22	0.07418086
255	0x3d9386b0	0.07203424

lstm.bias_hh_l0 f4 [256]
0	0x3d839038	0.06423992
1	0x3df49aaf	0.11943566
2	0x3df57232	0.11984672
3	0x3c778db3	0.015109467
4	0x3d73b88e	0.059502177
5	0x3d133016	0.03593453
6	0x3d8d7ae1	0.06908203
7	0xbd780a29	-0.060556564
8	0xbdede655	-0.11616198
9	0x3de4df1c	0.11175367
10	0xbdb25d70	-0.08709228
11	0x39993a25	0.00029225755
12	0xbdc2ebcf	-0.09517633
13	0xbda02521	-0.07819582
14	0x3e105598	0.14095151
15	0xbd630a13	-0.05542953
16	0xbdc8728b	-0.09787472
17	0x3dd22dcd	0.10262642
18	0x3bfc686a	0.007702877
19	0x3dd4ae02	0.10384752
20	0xbcc36874	-0.023853518
21	0xbd1bb520	-0.03801453
22	0x3bfd707a	0.0077343555
23	0xbc26baa7	-0.010176337
24	0x3dd41538	0.1035561
25	0x3e060720	0.13088655
26	0xbd8e3d4e	-0.06945287
27	0x3d8e0ec5	0.06936411
28	0x3daa20af	0.08307015
29	0xbd3849dc	-0.044992313
30	0xbdb05033	-0.08609047
31	0x3c938ded	0.018012011
32	0x3863c6e0	5.4306234e-05
33	0xbd0a0b2a	-0.033702053
34	0x3de76269	0.11298067
35	0xbb8c7319	-0.0042861816
36	0x3c9335bc	0.017969958
37	0xbd3285cd	-0.043584634
38	0xbdaaa41b	-0.08332082
39	0xbc5ebb49	-0.013594457
40	0xbd3f26ca	-0.04666785
41	0xbda80908	-0.082048476
42	0xbd6eefc5	-0.05833413
43	0x3cfbe8f6	0.030750733
44	0x3d99b919	0.07506008
45	0x3d89b7a7	0.06724482
46	0x3d8ccb6d	0.06874738
47	0xbddcce9f	-0.10781597
48	0x3ded5ed2	0.11590351
49	0x3d7d6d65	0.061871905
50	0xbc8962ef	-0.016770808
51	0x3d177c9c	0.03698407
52	0xbd3f8d5c	-0.04676567
53	0xbd8c672e	-0.068556175
54	0x3c899451	0.016794356
55	0xbd2c031c	-0.041995153
56	0x3d453fcf	0.048156556
57	0x3d301edb	0.042998176
58	0xbd0f5e40	-0.035001993
59	0xbd0b53e6	-0.03401556
60	0x3dda90bd	0.10672138
61	0x3d5e96b7	0.05434295
62	0xbd1545e6	-0.036443613
63	0xbd89f580	-0.067362785
64	0x3dbac256	0.09119098
65	0xbcdbcae3	-0.026830142
66	0xbdacf630	-0.08445394
67	0x3c6cfdf1	0.014464841
68	0xbda8429b	-0.08215829
69	0xbbd3d226	-0.0064642606
70	0x3c6bea79	0.014399164
71	0x3db653b3	0.08902683
72	0xbdacdd8d	-0.08440695
73	0xbdce2d1d	-0.100671984
74	0xbda1d064	-0.079010755
75	0xbdcf851b	-0.1013281
76	0xbdb980a9	-0.09057743
77	0xbde59b00	-0.112112045
78	0x3dfa848c	0.122323126
79	0x3d874fa9	0.06606991
80	0x3d31e90f	0.043435153
81	0x3d6d1807	0.057884242
82	0xbcf3b1a1	-0.029747786
83	0x3d23bfee	0.03997796
84	0xbddd911e	-0.108186945
85	0x3d9eb45d	0.07749245
86	0xbd95e3b7	-0.07318824
87	0xbcca311a	-0.024681617
88	0xbdebe2be	-0.11517857
89	0xbb24cf68	-0.0025148038
90	0xbda7e029	-0.08197052
91	0xbd6faeb2	-0.05851621
92	0xbd8a0a7c	-0.06740281
93	0x3ce63592	0.028101716
94	0x3d9ef1c5	0.07760958
95	0x3dac5cf9	0.084161706
96	0xbd8718b5	-0.06596509
97	0xbd15da39	-0.036585066
98	0x3c9e3fd5	0.019317547
99	0x3cbb92d2	0.022897158
100	0xbd03c321	-0.03216851
101	0x3d45e98e	0.04831844
102	0x3d84edf2	0.06490697
103	0x3d7d55ab	0.061849277
104	0x3deb154e	0.11478673
105	0x3c525625	0.012837921
106	0xbccdad11	-0.025106939
107	0x3c7ec908	0.015550859
108	0x3d4da5da	0.050206997
109	0x3d7739c7	0.060357835
110	0x3dd2bd5a	0.10290022
111	0x3dd53061	0.10409618
112	0x3ddd1bb0	0.107962966
113	0x3de24008	0.11047369
114	0xbd8c4d3b	-0.06850668
115	0x3c745b71	0.014914379
116	0xbca215ef	-0.01978585
117	0x3d59ad91	0.05314404
118	0x3ddaa6f0	0.10676372
119	0x3cf4d031	0.02988443
120	0xbd8916e3	-0.066938184
121	0xbd589512	-0.05287654
122	0x3d9c85cb	0.076427065
123	0xbccf5fb6	-0.025314193
124	0x3d9dded5	0.077085175
125	0xbcc9fd57	-0.024656935
126	0xbc80d396	-0.015725892
127	0x3d48cda8	0.049024254
128	0x3c8bd7eb	0.017070731
129	0xbdfe3a53	-0.12413468
130	0x3c3e1c62	0.011603447
131	0x3c5180d7	0.0127870655
132	0x3ca7f204	0.020501144
133	0xbd5a393a	-0.05327723
134	0xbdb98a00	-0.090595245
135	0xbcb79911	-0.022411855
136	0x3c9baf8a	0.019004602
137	0x3dd7f92a	0.10545571
138	0xbd5221aa	-0.051301636
139	0x3bc4d855	0.006007234
140	0x3dcefd5c	0.10106918
141	0xbcaaf6d7	-0.020869656
142	0x3da7c06e	0.08191
143	0xbdc891a9	-0.097934075
144	0x3dfb1de2	0.12261559
145	0x3ca9a24c	0.020707272
146	0xbc0c6e81	-0.008571268
147	0xbd34a868	-0.044105917
148	0x3d17b47a	0.03703735
149	0x3dcdf24d	0.10055981
150	0xbd7221af	-0.059114154
151	0xbc3527e0	-0.01105687
152	0x3d777ce1	0.06042183
153	0x3db93ca0	0.090447664
154	0xbd13187f	-0.035912033
155	0x3d9616fc	0.07328603
156	0xbde5d6bb	-0.11222597
157	0xbd972925	-0.073808946
158	0x3c83e3ec	0.016099893
159	0xba10b64e	-0.00055203296
160	0xbd9d5641	-0.07682467
161	0x3d9404c2	0.0722747
162	0x3ca817cf	0.020519165
163	0x3e008316	0.12550005
164	0xbdb3a47d	-0.08771608
165	0xbe093fd7	-0.13403259
166	0x3cc8c237	0.024506671
167	0xbbef4ab2	-0.0073026055
168	0xbdcb1362	-0.09915806
169	0x3d50279a	0.050819017
170	0x3ababf63	0.0014247712
171	0x3d2de518	0.04245481
172	0xbcfcf15b	-0.030876806
173	0x3c663f87	0.014053232
174	0x3d9df5eb	0.07712921
175	0x3acc0b6d	0.001556737
176	0xbd9d8c33	-0.076927565
177	0x3e0309a5	0.12796648
178	0x3d826c66	0.063683316
179	0x3d588b5f	0.05286729
180	0x3cbd5a4e	0.02311435
181	0x3e027527	0.12740003
182	0xbde1c6b9	-0.110242315
183	0x3da8ed49	0.082483836
184	0xbdf782bf	-0.12085485
185	0x3dedf58f	0.11619102
186	0x3e1117d3	0.14169244
187	0xbdbe18c0	-0.092820644
188	0xbd91f9af	-0.071277015
189	0x3db03d22	0.0860541
190	0xbd9bf719	-0.076154895
191	0x3d1f7ae8	0.038935572
192	0xbd044f2e	-0.032302074
193	0xbdd71c7c	-0.1050348
194	0x3d995ed3	0.074887894
195	0xbc872ed0	-0.016501814
196	0x3db554fb	0.08854099
197	0x3c3c23fb	0.011483188
198	0x3dd5c46f	0.10437857
199	0x3d219ac9	0.039454255
200	0x3cb4447e	0.022005316
201	0x3d8f177c	0.06986901
202	0x3e019344	0.12653834
203	0xbdae2d5a	-0.08504744
204	0xbcca6381	-0.02470565
205	0xbdcbd961	-0.09953571
206	0xbdd2ffd1	-0.10302699
207	0x3d3ec164	0.04657115
208	0x3d951a37	0.07280391
209	0xbd7e66fd	-0.062109936
210	0x3e022f55	0.12713368
211	0xbd2faa82	-0.04288722
212	0x3d85f597	0.06540983
213	0x3c51331e	0.012768535
214	0x3ddd78cb	0.10814055
215	0x3d84f96b	0.06492885
216	0x3d0d809a	0.034546472
217	0x3dd5111f	0.10403656
218	0x3d876b44	0.06612256
219	0x3db9b3b9	0.090674825
220	0xbde0d735	-0.109785475
221	0xbcd481a3	-0.025940722
222	0xbda76bcd	-0.08174858
223	0x3d4f6cca	0.05064086
224	0x3e08cfa2	0.13360456
225	0x3cff9dc5	0.03120316
226	0xbc8e471c	-0.017367892
227	0x3c974662	0.018466178
228	0xbc21d9d6	-0.009878596
229	0xbde2cd0c	-0.11074266
230	0xbdcf3e0c	-0.101192564
231	0x3ca92f6c	0.020652495
232	0x3de75e31	0.112972625
233	0x3cb60078	0.02221702
234	0xbc21585f	-0.0098477295
235	0x3d43f35c	0.047839507
236	0x3d0108b4	0.03150244
237	0x3ce309a4	0.027714558
238	0xbd0efe2c	-0.034910366
239	0xbcb0d2bb	-0.02158486
240	0x3d3eb598	0.0465599
241	0xbd2cc8be	-0.04218363
242	0x3d4820d6	0.04885944
243	0xbd60f25a	-0.054918624
244	0xbcc06f0c	-0.023490451
245	0xbdafa22c	-0.08575854
246	0xbdf7b36b	-0.12094768
247	0xbd91a462	-0.07111432
248	0xbcf0157c	-0.02930712
249	0x3d473e42	0.048643358
250	0xbd979427	-0.07401305
251	0xbcc90da6	-0.02454264
252	0xbdc4b16a	-0.096041515
253	0xbd256542	-0.04037977
254	0xbd9fac48	-0.07796532
255	0x3dc77832	0.09739722

lstm.weight_ih_l1 f4 [256, 64]
0	0xbdb76ac2	-0.08955909
1	0xbd4c67e7	-0.049903776
2	0x3caf8992	0.021427903
3	0xbd13338e	-0.03593784
4	0xbd44595c	-0.047936782
5	0xbe03faa9	-0.12888588
6	0xbce274ab	-0.027643522
7	0x3d3f4e90	0.046705782
8	0xbb2bbd12	-0.0026205224
9	0x3cc223c1	0.02369869
10	0x3ce6d79e	0.028178986
11	0x3d961319	0.07327861
12	0x3d020cf4	0.031750634
13	0x3dbcc2fc	0.09216878
14	0x3d99d625	0.07511548
15	0xbd8e5dd3	-0.06951489
16	0x3ca14702	0.01968718
17	0xbd37e913	-0.04490001
18	0xbd75cbe9	-0.060008917
19	0xbdfb84f6	-0.1228122
20	0xbe038ee2	-0.12847474
21	0x3df77578	0.12082952
22	0x3da54fec	0.080718845
23	0xbc2b0d09	-0.01044012
24	0x3c9ed5f9	0.01938914
25	0x3e0d4a6e	0.13797924
26	0xbd40d20e	-0.047075324
27	0xbd1a370a	-0.037650146
28	0x3cec8f17	0.028876824
29	0x3dc56249	0.09637887
30	0xbd0f548c	-0.03499274
31	0xbc430c26	-0.011904752
32	0x3e273d31	0.16331936
33	0xbde86f8b	-0.113494
34	0x3d534945	0.051583547
35	0xbdd86b26	-0.10567312
36	0xbd6bdd06	-0.05758383
37	0x3c9bc0f5	0.019012908
38	0xbd8ac683	-0.06776144
39	0xbd6e234e	-0.058139138
40	0xbd6ebe5a	-0.058287002
41	0x3da99671	0.082806475
42	0x3d6ac825	0.05731978
43	0x3e056032	0.13024977
44	0xbdf26b7b	-0.118369065
45	0x3e186f3e	0.14886186
46	0x3decd404	0.11563876
47	0xbd144d90	-0.036206782
48	0x3dd79507	0.105264716
49	0xbdd8c260	-0.10583949
50	0x3d677a14	0.056512907
51	0xbdbf4e36	-0.093410894
52	0xbdfbd047	-0.12295585
53	0xbd4533cc	-0.0481451
54	0xbd622144	-0.055207506
55	0x3daef77b	0.08543297
56	0xbd2c0d7c	-0.042005047
57	0xbbf2bbec	-0.007407656
58	0x3d15ab17	0.036540117
59	0xbdd5e0ab	-0.10443243
60	0x3d4d7f08	0.050169975
61	0x3b730a5e	0.0037085037
62	0xbe014402	-0.12623599
63	0xbda8bb27	-0.082388215
64	0xbdd4b3a7	-0.103858285
65	0xbd6e6aba	-0.05820725
66	0xbdbc6bab	-0.092002235
67	0x3dd87280	0.10568714
68	0xbcab44f3	-0.020906901
69	0xbc2e9192	-0.010654824
70	0x3dacae6c	0.08431706
71	0xbdd81e52	-0.10552658
72	0x3da8405c	0.082154006
73	0xbe0e1993	-0.13876943
74	0x3c52814b	0.012848209
75	0xbd89172f	-0.06693875
76	0xbd04f09b	-0.03245602
77	0xbdffe6a0	-0.1249516
78	0x3c3dea41	0.011591495
79	0x3dce42af	0.10071313
80	0xbd4178e8	-0.047234446
81	0xbe0cbb3b	-0.13743298
82	0xbc8fb1d5	-0.017540852
83	0x3dc2e934	0.09517136
84	0xbde3bd8e	-0.11120139
85	0xbd8b2ecc	-0.06796035
86	0xbd83a3d8	-0.06427735
87	0x3ca46f81	0.0200727
88	0xbb8b59c2	-0.0042526433
89	0x3d8dbb91	0.06920541
90	0xbc5d3b4a	-0.013502905
91	0xbd8a9040	-0.06765795
92	0xbb9cc78d	-0.0047845305
93	0x3dad990d	0.08476458
94	0x3d4a83bf	0.04944205
95	0x3b7825ad	0.0037864253
96	0x3e11168f	0.14168762
97	0x3d9953a1	0.07486654
98	0xbccf6d28	-0.025320604
99	0x3de39828	0.11113006
100	0x3dce3c1e	0.1007006
101	0x3ddecc1d	0.10878775
102	0xbb8df3ec	-0.0043320563
103	0x3d0368f2	0.032082506
104	0x3dcdd1e5	0.100498
105	0xbdec909f	-0.11551022
106	0xbd22bc3d	-0.0397303
107	0xbddd0aa2	-0.10793044
108	0x3c471d97	0.012153051
109	0xbd5bd4c5	-0.05366971
110	0xbd57df56	-0.052703224
111	0x3dc4cf18	0.096098125
112	0xbe05cc2b	-0.13066165
113	0xbd81b66e	-0.06333624
114	0x3db6a6c2	0.08918525
115	0x3db87127	0.09005957
116	0x3dc241f0	0.09485233
117	0xb9d1cb31	-0.00040014976
118	0xbd7b245f	-0.061313983
119	0x3ce33fd2	0.027740393
120	0xbdd6d397	-0.10489576
121	0xbb8dbd30	-0.0043255314
122	0xbe038037	-0.12841879
123	0x3d71728a	0.058947124
124	0x3c9451cb	0.018105408
125	0xbd55df12	-0.05221469
126	0x3d7daa31	0.061929885
127	0xbd4e217f	-0.050324913
128	0x3dec07d6	0.11524932
129	0xbd924bd6	-0.07143371
130	0x3db2c072	0.08728112
131	0x3d87885c	0.06617805
132	0xbddada8d	-0.106862165
133	0x3d5c90bd	0.05384897
134	0xbe05d1ca	-0.1306831
135	0x3a6f0812	0.0009118329
136	0x3d378748	0.04480675
137	0x3d2f4395	0.04278906
138	0x3de6481f	0.11244225
139	0x3e0898e5	0.13339575
140	0xbd4096a2	-0.047018655
141	0xbc6b6e80	-0.014369607
142	0xbc763d26	-0.015029227
143	0xbc41ddb7	-0.011832646
144	0xbd658800	-0.056037903
145	0xbdd211fe	-0.10257338
146	0xbcf8c87b	-0.030369034
147	0x3b421d89	0.0029619655
148	0x3d0441eb	0.032289427
149	0x3ce86fad	0.028373564
150	0x3b1f710a	0.002432885
151	0x3bde28d6	0.0067797704
152	0x3e064d39	0.13115396
153	0x3dd77a3f	0.105213635
154	0xbd9a0c4c	-0.07521877
155	0xbd0e5c70	-0.034756124
156	0xbddccead	-0.10781608
157	0xbdce7a33	-0.100819014
158	0x3dc88ba5	0.0979226
159	0xbdb7c528	-0.089731514
160	0xbc0fc9b5	-0.008776118
161	0x3ce463a4	0.027879544
162	0x3d8d6565	0.06904105
163	0xbc91d28d	-0.017800594
164	0x3d8c5b7c	0.06853387
165	0xbd86b52e	-0.06577526
166	0x3de4da10	0.111744046
167	0x3e012f28	0.12615645
168	0xbd9f37a5	-0.07774285
169	0xbd8cefff	-0.06881713
170	0xbdec08b3	-0.11525097
171	0x3ddfae7d	0.10921953
172	0xbd260df0	-0.040540636
173	0x3db11076	0.08645718
174	0x3df3b0c4	0.1189895
175	0xbca0fb96	-0.019651216
176	0x3b84347f	0.0040345783
177	0xbd993229	-0.074802704
178	0x3d969fa1	0.073546655
179	0x3d7304b6	0.059330665
180	0xbde34cae	-0.1109861
181	0xbd7da060	-0.061920524
182	0xbda21f48	-0.07916123
183	0x3bf2de48	0.007411752
184	0x3c25140b	0.010075579
185	0x3d8f85a9	0.070079155
186	0xbdb10e7e	-0.08645342
187	0x3deea53e	0.11652611
188	0x3c8a3489	0.016870754
189	0xbdb84fec	-0.08999619
190	0xbe06b908	-0.13156521
191	0x3d49e846	0.04929378
192	0xbcc0f7a7	-0.02355559
193	0xbd9ae4a0	-0.07563138
194	0xbca54105	-0.020172605
195	0x3c9afb21	0.018918576
196	0x3d37c8e3	0.044869315
197	0xbbbc5429	-0.0057473374
198	0x3d9edf91	0.07757486
199	0x3d992f56	0.07479732
200	0x3db1c4e2	0.086801305
201	0x3ba2ad77	0.0049645263
202	0xbd1da301	-0.03848553
203	0xbda4a946	-0.08040099
204	0x3dc3d8a3	0.095628045
205	0x3e00571c	0.1253323
206	0x3e0b0ef6	0.13579926
207	0x3cf0f417	0.029413266
208	0xbcd30166	-0.025757503
209	0x3cf37d5e	0.029722866
210	0x3d8de667	0.069287114
211	0xbc54cd78	-0.012988441
212	0xbd41f9d4	-0.047357395
213	0xbe085cdc	-0.13316673
214	0x3e03f9ec	0.12888306
215	0xbdc01de7	-0.093807034
216	0x3dc361d3	0.09540143
217	0xbe0b6628	-0.13613188
218	0xbd56ab15	-0.05240925
219	0x3a5d6f64	0.00084470795
220	0xbdac0120	-0.08398652
221	0x3d048a6b	0.03235857
222	0xbc76fbfe	-0.015074728
223	0x3dad54e5	0.08463458
224	0x3d4ae4f4	0.049534753
225	0x3bbb8e26	0.0057237325
226	0xbdcc631c	-0.09979841
227	0xbd1a0133	-0.0375988
228	0x3de6a35f	0.11261629
229	0x3d8d7db0	0.069087386
230	0xbc9bb87c	-0.019008867
231	0xbdcfd796	-0.10148542
232	0x3dbdf540	0.09275293
233	0x3d1fe678	0.03903815
234	0x3dafe001	0.08587647
235	0xbdbfddf3	-0.09368505
236	0xbdb14188	-0.08655077
237	0x3db1b7cd	0.08677635
238	0xbd4bb08f	-0.049728926
239	0xbdcc5378	-0.09976858
240	0xbd3e998b	-0.04653315
241	0xbc8ffc2e	-0.017576303
242	0xbddc7298	-0.107640445
243	0xbd2450c4	-0.040116087
244	0xbdd254f4	-0.1027011
245	0xbddbeb04	-0.10738185
246	0xbd781ab4	-0.06057234
247	0xbcdb4a80	-0.026768923
248	0x3a6747d2	0.0008822653
249	0xbd84264f	-0.06452619
250	0x3d744d72	0.05964417
251	0xbdca271d	-0.098707415
252	0x3c876f97	0.016532702
253	0x3c851487	0.01624514
254	0xbd9aa66e	-0.07551275
255	0xbd29126c	-0.041277334

lstm.weight_hh_l1 f4 [256, 64]
0	0x3d5660d8	0.05233845
1	0xbcdd23c0	-0.026994586
2	0x3c6c79cf	0.014433338
3	0xbdb3200b	-0.08746346
4	0xbd9f3899	-0.07774467
5	0xbdea214b	-0.114321314
6	0x3dab6ab6	0.08369963
7	0x3de704ce	0.11280213
8	0x3d4830f9	0.04887483
9	0xbdee086a	-0.116226986
10	0xbde3536c	-0.11099896
11	0xbdcf1e5c	-0.101132125
12	0xbdfdc816	-0.12391679
13	0xbdea0cc3	-0.11428215
14	0x3d2d83c7	0.042362
15	0xbcd35c0b	-0.025800725
16	0x3ce37893	0.027767455
17	0xbd79f268	-0.061022192
18	0xbc8fd24a	-0.017556328
19	0x3dde3c7d	0.10851381
20	0x3d8c3bb4	0.06847325
21	0x3cf18c08	0.029485717
22	0x3de19c77	0.110161714
23	0xbd5a5909	-0.053307567
24	0x3c014a85	0.007891302
25	0xbcd1b9c8	-0.025601283
26	0xbbfd22df	-0.007725104
27	0xbd939603	-0.07206347
28	0xbe02c8e5	-0.12771948
29	0x3d3261c0	0.043550253
30	0x3d8be8ca	0.0683151
31	0x3dca75ad	0.09885726
32	0xbd32570d	-0.04354005
33	0xbdec39a2	-0.1153443
34	0xbd7456cb	-0.059653085
35	0xbdaf45ff	-0.085582726
36	0x3c9d465e	0.019198593
37	0xbdd64995	-0.104632534
38	0xbd63c649	-0.05560902
39	0xbdd019b5	-0.10161153
40	0xbcf9cffa	-0.030494679
41	0x3d42d9f2	0.04757113
42	0x3d6eee38	0.05833265
43	0xbd937813	-0.07200637
44	0xbc277aca	-0.010222146
45	0xbc706404	-0.014672283
46	0x3da53598	0.08066863
47	0xbdd52aab	-0.10408529
48	0xbdcd0124	-0.10009983
49	0xbcc01820	-0.023449004
50	0x3da983ff	0.082771294
51	0x3db78570	0.08960998
52	0xbdb03ab1	-0.086049445
53	0xbcd32fca	-0.025779624
54	0xbd9ceab7	-0.07661956
55	0xbd1ff182	-0.03904868
56	0x3ca17398	0.01970844
57	0x3cc9ebf9	0.024648653
58	0x3cee7c9a	0.029112149
59	0xbd8173aa	-0.06320889
60	0xbc8d30ad	-0.017235124
61	0xbb3f051e	-0.0029147337
62	0x3df124d7	0.11774605
63	0xbd62606f	-0.055267747
64	0xbd825a62	-0.063648954
65	0xbd18b1a7	-0.037278797
66	0x3b41a51b	0.0029547873
67	0x3d3b1606	0.0456753
68	0x3de9e892	0.114213124
69	0xbd8bc2c4	-0.06824258
70	0x3b62916d	0.0034571544
71	0xbd1cd087	-0.038284805
72	0xbd89382c	-0.06700167
73	0x3da09c24	0.078422815
74	0x3c203d3c	0.009780224
75	0x3d7698a2	0.060204156
76	0xbdd2d19a	-0.102938846
77	0xbdb1013d	-0.08642814
78	0x3e02b80f	0.12765525
79	0xbd90ea03	-0.07075884
80	0x3d05ea27	0.03269401
81	0xbdb56e70	-0.08858955
82	0x3de4013b	0.11133047
83	0xbdcb763a	-0.09934659
84	0xbd960a01	-0.07326127
85	0x3d91b512	0.071146145
86	0xbd80a5be	-0.06281613
87	0x3dba4311	0.09094823
88	0x3cdd32c3	0.027001744
89	0xbbb87752	-0.0056294585
90	0x3d10f789	0.035392318
91	0xbda6e97b	-0.081500016
92	0x3d526401	0.051364902
93	0x3db58f0e	0.08865176
94	0x3b383e6d	0.002811338
95	0xbd309913	-0.043114733
96	0x3b38de38	0.0028208625
97	0xbdaf504c	-0.08560237
98	0xbdcb85cb	-0.09937628
99	0xbdd2824b	-0.10278758
100	0x3d3ada62	0.045618422
101	0xbc2d6923	-0.010584149
102	0x3cbc24ce	0.022966769
103	0xbd554f65	-0.05207767
104	0xbd097226	-0.033556126
105	0x3d35823b	0.04431365
106	0xbcbbbba8	-0.02291663
107	0x3d175be6	0.036952876
108	0x3cbb6598	0.022875592
109	0x3dfaf1db	0.122531615
110	0xbdea5797	-0.11442488
111	0x3c66812b	0.014068882
112	0xbc0f3853	-0.008741456
113	0xbcde4974	-0.027134635
114	0xbabd07fc	-0.0014421935
115	0xbda5693c	-0.080767125
116	0xbc1f7ac1	-0.009733857
117	0xbd49cb1b	-0.049265962
118	0x3dd2e5fd	0.10297773
119	0xbd85202f	-0.06500279
120	0x3ca6d94b	0.020367285
121	0xbce25e3f	-0.02763283
122	0xbd34ca44	-0.044138208
123	0xbd2d3e92	-0.042296
124	0xbd5e7254	-0.05430825
125	0x3c248aad	0.0100428285
126	0x3d16d72d	0.0368263
127	0x3d1951c0	0.03743148
128	0x3d8da264	0.06915739
129	0xbde1a74f	-0.1101824
130	0xbd11dabd	-0.035608996
131	0x3cd9ac8b	0.026571533
132	0xbcf91e1d	-0.030409867
133	0xbd56686b	-0.052345674
134	0x3dabb7f0	0.08384693
135	0xbce1fdbd	-0.027586812
136	0xbc1e8fca	-0.009677837
137	0x3d3d9a1d	0.046289552
138	0xbdf14d05	-0.117822684
139	0xbcabb8ef	-0.020962207
140	0xbdd8b3c4	-0.105811626
141	0x3dd98104	0.10620311
142	0x3c077153	0.008266765
143	0xbc3ee95d	-0.011652318
144	0x3de0bdf3	0.1097373
145	0x3ae8fedf	0.0017776153
146	0x3ca9a8f5	0.020710448
147	0x3ce1b663	0.02755279
148	0x3d115aa8	0.035486847
149	0x3bd2312b	0.0064145527
150	0x3e0fa453	0.14027528
151	0xbd65cc57	-0.056103077
152	0x3cb652e5	0.022256324
153	0xbcb3b6ec	-0.02193781
154	0x3ddb79e7	0.107166104
155	0xbc7483e7	-0.014924026
156	0x3dcbc15d	0.099489905
157	0xbcc24afa	-0.023717392
158	0xbd546eb5	-0.05186339
159	0xbbf56a27	-0.007489461
160	0xbd97d920	-0.0741446
161	0x3e0006a1	0.12502529
162	0x3d90ceb9	0.07070679
163	0x3ddb32bb	0.107030354
164	0x3dcb0dc8	0.09914738
165	0xbda6b030	-0.08139074
166	0x3dd30d92	0.10305323
167	0xbde3ee27	-0.11129408
168	0xbd5eb533	-0.054372024
169	0x3d9a3b9d	0.075309016
170	0xbd89d7df	-0.06730627
171	0x3b8d8d5a	0.004319829
172	0x3d6c11ca	0.057634152
173	0xbd89b753	-0.067244194
174	0x3db0ec01	0.08638764
175	0x3de6fbd7	0.112785034
176	0x3db0179c	0.08598253
177	0x3b03dd74	0.002012101
178	0xbc4d31fc	-0.012524124
179	0x3c4b7a02	0.012419226
180	0x3de0b8db	0.109727584
181	0x3d790615	0.060796816
182	0xbdd08972	-0.101824656
183	0x3df6f795	0.12058941
184	0xbbb02473	-0.005375439
185	0x3cb05ba6	0.021528076
186	0xbbc0bebc	-0.0058821123
187	0xbc3cfc46	-0.011534756
188	0xbd9c6e44	-0.07638219
189	0x3bc93794	0.0061406586
190	0xbdd18060	-0.10229564
191	0xbde9f6f1	-0.114240535
192	0xbdb5e32c	-0.0888122
193	0x3d09c1fc	0.033632264
194	0xbdbdc45f	-0.092659704
195	0x3d2695f5	0.040670354
196	0xbdb29d7d	-0.08721445
197	0xbdb2dde4	-0.087337285
198	0xbe020c28	-0.1269995
199	0xbdf48a53	-0.11940446
200	0xbd915f00	-0.07098198
201	0xbdf0fdf3	-0.11767187
202	0xbdc9400d	-0.0982667
203	0xbde9661f	-0.11396431
204	0x3e0f020a	0.13965622
205	0x3da129fa	0.078693345
206	0x3d083306	0.033251785
207	0x3d2e7356	0.04259046
208	0xba831fe4	-0.0010004011
209	0x3d9ee033	0.07757606
210	0xbcac6ca1	-0.021047892
211	0xbd849ed1	-0.06475604
212	0xbd4c4e4b	-0.049879353
213	0xbdc1b50b	-0.09458359
214	0xbd89e137	-0.067324094
215	0xbdc4e181	-0.09613324
216	0xbcbdeadc	-0.023183279
217	0x3d3726cf	0.044714745
218	0x3cdb19e5	0.026745746
219	0x3e0fbbd2	0.14036492
220	0x3d897f62	0.067137495
221	0x3dd05dc9	0.10174138
222	0xbda24bdf	-0.079246275
223	0xbd89d0d8	-0.06729287
224	0xbdca69d6	-0.09883468
225	0xbdddc606	-0.108287856
226	0xbe12c72d	-0.14333792
227	0xbcb786bb	-0.022403112
228	0xbe117c5c	-0.14207596
229	0x3ce12e46	0.027487885
230	0x3e06f1a4	0.13178116
231	0xbc342eda	-0.010997498
232	0xbcbd9bde	-0.023145612
233	0xbb934620	-0.0044944435
234	0x3cf394e2	0.029734079
235	0x3caf46d1	0.021396073
236	0xbc70222f	-0.0146565875
237	0xbddea290	-0.1087085
238	0xbd2c1751	-0.042014424
239	0x3dd381ed	0.10327516
240	0x3d6fb403	0.058521282
241	0xbd88c975	-0.0667905
242	0xbc434d65	-0.011920308
243	0x3cfd1420	0.030893385
244	0xbdf2905b	-0.1184394
245	0x3e049001	0.12945558
246	0x3c084fee	0.008319838
247	0x3d6f271d	0.05838691
248	0xbd5fbbb1	-0.054622356
249	0xbde99bf4	-0.11406699
250	0x3dc000c6	0.093751475
251	0xbd986dc2	-0.0744281
252	0xbdaa4dec	-0.08315644
253	0xbd750526	-0.059819363
254	0x3ddcf397	0.107886486
255	0x3dc64028	0.096802056

lstm.bias_ih_l1 f4 [256]
0	0xbd88d753	-0.06681695
1	0x3d273ea3	0.04083122
2	0xbd3326ee	-0.043738298
3	0xbd9970f5	-0.07492248
4	0x3d05fae8	0.032709986
5	0x3d208578	0.039189786
6	0x3c0ccbeb	0.00859354
7	0xbd5481a7	-0.05188146
8	0x3c28c934	0.010301877
9	0x3be547a7	0.006997067
10	0xbd05f4a7	-0.03270402
11	0x3cc0e6d2	0.023547564
12	0x3d500aa3	0.050791394
13	0x3c53cb4b	0.012926887
14	0xbd1f6451	-0.03891403
15	0xbd85c378	-0.06531423
16	0x3db2a10d	0.08722124
17	0x3d4077fc	0.046989426
18	0xbd37de67	-0.044889834
19	0xbd3479e0	-0.04406154
20	0x3ba4edbb	0.0050332225
21	0x3d5307f7	0.051521268
22	0xbe036bb6	-0.12834057
23	0x3dd10a42	0.10207035
24	0xbd647188	-0.055772334
25	0x3ddfab65	0.10921363
26	0xbbacaadd	-0.005269392
27	0x3bcac64f	0.006188191
28	0xbdb745de	-0.08948873
29	0x3d9aa21f	0.075504534
30	0x3da1f175	0.079073824
31	0xbce86e13	-0.0283728
32	0x3d09f035	0.033676345
33	0xbdc1fbb0	-0.09471834
34	0x3de3d38f	0.11124336
35	0x3c7cf2c0	0.0154387355
36	0x3cf57664	0.02996368
37	0x3d8e5613	0.06950011
38	0x3ddd14cb	0.107949816
39	0xbdd141dc	-0.1021764
40	0x3db62624	0.088939935
41	0x3dde4402	0.10852815
42	0x3d9a5f6d	0.07537732
43	0xbd1f9518	-0.038960546
44	0x3dabd3fc	0.08390042
45	0xba844180	-0.0010090321
46	0xbdc6fc3f	-0.09716081
47	0x3dcd7f56	0.10034053
48	0x3dc5adb4	0.09652272
49	0x3c8f3c91	0.017484935
50	0xbc37a7f8	-0.01120948
51	0x3daf07eb	0.08546432
52	0x3d668edc	0.056288585
53	0xbc834c1c	-0.016027503
54	0x3cd68034	0.026184179
55	0xbd3958f6	-0.045250855
56	0x3e05f85e	0.13083026
57	0xbde89558	-0.1135661
58	0xbde4b622	-0.111675516
59	0xbd85cca7	-0.06533175
60	0x3cc47e98	0.023986146
61	0x3de72c13	0.11287703
62	0xbdd4ed70	-0.1039685
63	0x3d952b26	0.072836205
64	0xbd094c1a	-0.03351984
65	0x3cc60c53	0.024175799
66	0xbdc97ead	-0.098386146
67	0xbd8ba185	-0.06817917
68	0x3d1a8aa4	0.037729874
69	0x3dd8f1e3	0.10593011
70	0xbd898ed4	-0.067166954
71	0xbd173ff1	-0.036926214
72	0xbd5bc118	-0.053650945
73	0x3dc255c5	0.094890155
74	0xbd93a607	-0.072094016
75	0xbdbd5fb6	-0.09246771
76	0x3d8c8606	0.068615004
77	0x3baf9fa6	0.0053596077
78	0xbcd5a46e	-0.026079383
79	0x3d6e4003	0.058166515
80	0x3cac68e2	0.021046106
81	0x3d7480f0	0.059693277
82	0xbe0362eb	-0.12830703
83	0x3c83cdc4	0.016089328
84	0xbd576ccd	-0.052593995
85	0xbcfe76e6	-0.031062555
86	0xbc17527e	-0.009235976
87	0x3d293455	0.041309673
88	0xbd9fe4bb	-0.07807299
89	0x3cd55e87	0.02604605
90	0xbdaf72ee	-0.08566843
91	0xbda4d7fc	-0.08049008
92	0x3d934230	0.07190359
93	0xbc67b906	-0.014143234
94	0xbcef86c3	-0.029239064
95	0xba171d1c	-0.00057645305
96	0xbdbb9e14	-0.091610104
97	0x3d97a40a	0.07404335
98	0x3df25d30	0.1183418
99	0xbd938193	-0.07202449
100	0x3e059ede	0.13048884
101	0x3c61d859	0.013784491
102	0x3d7b2e09	0.0613232
103	0xbdbc8910	-0.0920583
104	0xbd6c367b	-0.057669144
105	0xbd1bae48	-0.038008004
106	0x3dacfeeb	0.08447059
107	0x3d48c6d1	0.04901773
108	0x3dafc8a9	0.08583195
109	0xbc696a1d	-0.014246491
110	0x3d9dae74	0.0769929
111	0x3db04c7a	0.08608337
112	0x3da59be1	0.08086372
113	0xbdced370	-0.10098922
114	0xbd22f014	-0.039779738
115	0xbc84a358	-0.01619117
116	0xbde1fd0b	-0.11034592
117	0x3d9d83eb	0.07691177
118	0x3dc0aace	0.094075784
119	0x3cd08ba4	0.02545721
120	0xbd86dd67	-0.06585198
121	0xbd2a1e04	-0.04153253
122	0x3d254344	0.040347353
123	0x3debb7b8	0.11509651
124	0xbd0be08c	-0.03414969
125	0x3e02038c	0.12696666
126	0x3c881634	0.01661215
127	0x3dfecb2d	0.124410965
128	0x3dc753b2	0.097327605
129	0x3df96879	0.1217813
130	0xbcf2f47d	-0.029657597
131	0xbdd71526	-0.105020806
132	0xbd6e060a	-0.058111228
133	0x3dc961c8	0.098331034
134	0x3e09c3f1	0.13453652
135	0x3d39314c	0.04521303
136	0xbdc8553b	-0.097818814
137	0x3c67f0d5	0.01415654
138	0xbcbacaf7	-0.02280186
139	0x3d7a2268	0.06106797
140	0x3cf10b59	0.029424356
141	0x3d2c9a32	0.04213924
142	0x3dc4108f	0.09573471
143	0xbdbc41a7	-0.0919221
144	0x3dc1faad	0.09471641
145	0x3e0078b5	0.12546046
146	0x3d09fcc9	0.03368834
147	0xbc32c5aa	-0.010911385
148	0x3cd6a4c2	0.02620161
149	0xbd792439	-0.06082556
150	0xbce770e2	-0.028252069
151	0xbd0ff5d5	-0.035146553
152	0xbcc83445	-0.024438987
153	0xbdbf91ba	-0.09353967
154	0xbd9c0686	-0.07618432
155	0xbe0adbc7	-0.13560401
156	0xbdc94a7a	-0.098286584
157	0x3e07091f	0.13187073
158	0x3dfbb2fd	0.12289999
159	0x3d887d36	0.06664507
160	0x3d59b827	0.053154137
161	0x3e016de8	0.12639582
162	0x3d7f20ee	0.062287264
163	0x3ca8ae55	0.02059094
164	0xbd5e6a14	-0.054300383
165	0x3db4d018	0.08828753
166	0x3da91f49	0.0825792
167	0x3d7ef8d5	0.062249023
168	0x3dd7b67f	0.10532855
169	0xbd770694	-0.060309008
170	0x3dd2ccc7	0.102929644
171	0x3d1940aa	0.037415184
172	0x3d9f0aa6	0.07765703
173	0xbbb14883	-0.0054102554
174	0xbdcda1c7	-0.10040622
175	0xbd160991	-0.036630217
176	0x3d53d8eb	0.05172054
177	0x3dc58607	0.09644704
178	0x3d9a2b8e	0.07527839
179	0x3c98f5ad	0.018671835
180	0x3e0dc521	0.1384473
181	0x3ce858f6	0.028362732
182	0x3da1111f	0.07864594
183	0x3c944734	0.018100359
184	0x3d4b1b42	0.049586542
185	0xbd48b98d	-0.04900508
186	0x3d740d91	0.05958325
187	0x3db3d6eb	0.08781227
188	0xbd1cebfb	-0.038310986
189	0xbdadc961	-0.084856756
190	0x3d625b96	0.055263124
191	0xbdd7964d	-0.105267145
192	0xbbe890ff	-0.007097363
193	0xbd2ad5e2	-0.04170788
194	0x3cc1156a	0.023569781
195	0xbc95eea4	-0.01830227
196	0x3da33243	0.07968571
197	0xbc963de7	-0.018340064
198	0xba13d771	-0.0005639708
199	0xbcd18211	-0.025574716
200	0x3d98d85a	0.07463141
201	0xbd632b80	-0.055461407
202	0x3de24e51	0.11050094
203	0xbdd3dff7	-0.10345452
204	0x3bd1e957	0.00640599
205	0x3d8bd193	0.068270825
206	0xbdc5196f	-0.09623992
207	0x3d00e850	0.03147155
208	0x3d5b1e23	0.053495537
209	0x3d4b8d73	0.049695443
210	0x3b7efc98	0.0038907882
211	0x3c7bc769	0.015367367
212	0x3c9467fd	0.018115992
213	0x3b36e187	0.002790542
214	0xbdc5ba34	-0.09654656
215	0xbddd96dd	-0.108197905
216	0xbdaa1247	-0.083042674
217	0x3dc478dd	0.09593365
218	0x3d780d0e	0.060559325
219	0x3de65a18	0.11247653
220	0x3dcb3176	0.09921543
221	0x3d43c638	0.047796458
222	0xbc8deb06	-0.017323982
223	0xbe0a3542	-0.13496879
224	0x3db08ce6	0.08620624
225	0x3de276c7	0.11057811
226	0x3d560041	0.052246336
227	0xbde9c512	-0.11414541
228	0x3d93bd78	0.07213873
229	0x3d7a2119	0.06106672
230	0xbdc2a072	-0.09503259
231	0x3dcd93dc	0.100379676
232	0x3e0b0ebc	0.1357984
233	0x3d835006	0.06411748
234	0x3d90921b	0.070591174
235	0x3d7d6aa5	0.061869282
236	0x3de38c92	0.11110796
237	0x3c1f44bc	0.009720977
238	0xbe063c5d	-0.13108964
239	0x3dca442b	0.09876283
240	0xbd8a3472	-0.067482844
241	0x3e024c88	0.12724507
242	0x3d88634f	0.066595666
243	0xbd0762ce	-0.033053212
244	0xbd520e59	-0.051283214
245	0xbdd53d7b	-0.10412117
246	0x3dc0c306	0.09412198
247	0xbda645bd	-0.0811877
248	0x3b7073d5	0.0036690135
249	0x3c088d70	0.008334503
250	0xb8440d58	-4.674247e-05
251	0x3d8f1797	0.06986921
252	0xbdca0dd4	-0.09865919
253	0x3e080650	0.13283658
254	0x3d5db489	0.05412725
255	0x3dcf05b5	0.101085104
